eda/churn_model.pt (torch, 7088 bytes, 5 tensors)

fc1.weight f4 [32, 9]
00000000: 40e8 9bbc e4d4 8e3d cd14 d43c 9b02 953e
00000010: dd74 91bb 2e8a 5ebf 4d1c 72be 4652 2bbe
00000020: 6852 12be 3670 b93d 1a58 02be f9d7 503e
00000030: e4fc d63d 093d fb3d e5a6 63bf 6cb7 22be
00000040: b1bd c93d 3e44 7ebe fdf6 143b 5300 c1bc
00000050: 6e7b 2bbe 08ad dd3d cf6e 96bd d1d2 073f
00000060: 9f7d ef3e 0834 b1be a785 98be b942 5c3e
00000070: 3b20 d8bc 373a f33e 62cb 413e f6c5 a5be
00000080: 5f90 733d 0d29 6cbe d1da 75be 290a 57be
00000090: 81b5 413e d0d6 50bd 0d13 e23d e1d4 93bd
000000a0: 7210 193b 1520 6ebf 7aba 24be 651a 50bd
000000b0: aa4b 803e 8444 d63e 2398 0ebe c6c2 0d3f
000000c0: 1fda adbd f5a0 c9bd c037 ef3d 16fe 1bbd
000000d0: 0285 243e c82a aabe 85e6 293e 6c79 7b3e
000000e0: 902f 533e e036 9a3e 260e 863e c398 1e3e
000000f0: 0923 953e f98b e2be 2f9b 7a3c 15ac 563d
00000100: 8d6a e33e 4690 c33e d4b1 4a3e 3f14 473e
00000110: 2a40 473e 8024 babc 5866 863e b5fe a5be
00000120: ca7c 1a3d 9685 a7bd 7dbe c5bc a83d 9bbd
00000130: bda2 ab3c 98d0 da3e a78e 143f 5956 04bf
00000140: 127f 88be 14a3 a73e b433 56bc 0be1 a73e
00000150: 8df7 f8bc 16ff ef3e 7bb9 d73e 14a8 743e
00000160: c12e fcbd 7fea 3fbe 8609 753e 3032 02be
00000170: 6535 d73e a29e 8c3e 5ecd b03e e25c 9c3d
00000180: 47ae 6ebe 6d38 6d3e 4975 303e 0e7b 7fbe
00000190: 8ee4 5a3e 47bd aebe 34fb 22bd 8c52 0fbd
000001a0: 0647 7e3d e003 683e 5ac7 9fbd 24b3 9a3e
000001b0: f095 b7bd 5730 12be 6977 a1be 74b3 b5bd
000001c0: 7cb3 b9be a00b f33e 2ceb bd3e fc2d 8ebe
000001d0: 5612 d03d 03ff 73be 6b35 eb3d 83d6 a83e
000001e0: d907 d53e aad6 cb3e 7b56 d43d ac64 7fbc
000001f0: 24ce 5bbe b305 0ebe 6b19 b6be db3a 8abe
00000200: 6b92 adbe be7e 5fbe 31b1 023e 9648 37bf
00000210: e980 093e 0d21 063e 11de 6b3d a955 793e
00000220: b871 803e 10df eebe fa7d 0f3c ebf3 bdbe
00000230: a4b4 0ebe 9d0e 6ebe b3a8 6c3e 37ab aabd
00000240: dbea 99bd cd47 8cbd 89b6 473e 6bbc 063e
00000250: 34bd edbc 7920 cc3d fa43 413f 5f6c 0ebf
00000260: 64a8 9bbe e7f7 07be 925a 1ebe 4d08 413e
00000270: bf95 823e 59a2 603d 96ba ce3e 07c9 37bf
00000280: cea9 083f 134b 073e b5a2 17be c488 813e
00000290: 25a3 bf3e fad9 b5be 64a7 953d afaf d2bd
000002a0: 5cd9 cd3d 1f5e f6bd def2 afbe c967 99bd
000002b0: f2d6 0fbe 659f 9b3e 86fe 93be a62d 8dbe
000002c0: 4a04 51bc 0358 18be 6ad6 91be 4f40 123d
000002d0: 8a4c 8abc c503 573d b119 b1bc 2059 973d
000002e0: e1f8 9fbe 24c8 c2be 170e 5d3e 2461 3a3e
000002f0: 6592 813e c1d0 47be 492c 253d acf0 debb
00000300: 9cd1 143d db7e 213e c343 f03e 8e46 7f3e
00000310: 3466 9fbd 0d46 d7be c082 a93e 91fc 81be
00000320: 3e0a f6bd e6b0 a1be 89e6 183d 4009 1d3e
00000330: d806 92be d5e9 343e 156c 0abe 4184 83be
00000340: 8c50 abbe 8f2e 123f b9e0 793e 6fb2 473e
00000350: a0d2 c7bd a823 8c3d 08a5 99bd f5cd 50bd
00000360: f409 3b3e 4635 393e b7e7 043f a5c6 b0bc
00000370: a6d3 d83e e07e 8c3d 450f 973e 22f7 0e3e
00000380: 9ada e1be 6b39 8f3e 6f93 cc3c 93d5 773e
00000390: 6f2a b53e 1bb9 b33e 9454 423d dfe7 ddbc
000003a0: b410 343e ac9b 933e fcf8 23be ec65 a4bd
000003b0: f492 af3e 20e1 a5be 35c9 cb3e cc53 313e
000003c0: 35ff d4be 805a a3bc a16a 323c 3286 453e
000003d0: 446b 283e e001 453e 53f6 f43d 50e7 94bd
000003e0: 7484 0dbf d7a3 c63d 146e ae3e fa26 abbe
000003f0: 8928 65be 0397 8ebd 4a7c 81be 166b 62bd
-0.019031644 0.069741994 0.025888825 0.2910355 -0.00443898 -0.86929595 -0.23643608 -0.16730604
-0.14289248 0.09054606 -0.1272892 0.20394887 0.10497454 0.12267501 -0.88926536 -0.15890282
0.09850634 -0.2483072 0.0022730224 -0.023559725 -0.16746303 0.10824019 -0.07345354 0.53056055
0.4677553 -0.3461001 -0.2978947 0.21509828 -0.026382556 0.47505352 0.1892524 -0.32377595
0.059463855 -0.23062535 -0.24009253 -0.2099997 0.18916894 -0.05098611 0.1103879 -0.07218338
0.002335575 -0.93017703 -0.1608676 -0.05080642 0.25057727 0.41849148 -0.13925223 0.55375326
-0.08488869 -0.09845153 0.11680555 -0.038084112 0.16066363 -0.33235765 0.16591842 0.24558038
0.20623612 0.3011999 0.2618267 0.15487961 0.29128292 -0.44247416 0.015295788 0.052410204
0.4441723 0.3819601 0.19794399 0.19441317 0.1945807 -0.022722483 0.26249957 -0.3242089
0.037716664 -0.08179776 -0.024138683 -0.07580119 0.020951623 0.4273727 0.5803017 -0.51694256
-0.26659447 0.32741606 -0.01307385 0.32788882 -0.030391479 0.46874303 0.42133698 0.23892242
-0.12313605 -0.18741797 0.23929414 -0.12714458 0.42032924 0.27464777 0.34531683 0.076349035
-0.23308669 0.23166056 0.1723224 -0.24949285 0.21376249 -0.34128782 -0.039790347 -0.034990832
0.062079452 0.22657728 -0.07801695 0.30214798 -0.08964145 -0.14276253 -0.31536415 -0.088721186
-0.36269748 0.47469807 0.37093484 -0.27769458 0.10159747 -0.23827748 0.11484798 0.3297616
0.4160755 0.39812213 0.10368057 -0.015587967 -0.21465355 -0.13869362 -0.35566267 -0.26998028
-0.3390077 -0.21825692 0.12762906 -0.7159513 0.13428082 0.13098545 0.057584826 0.24349083
0.2508676 -0.46654558 0.0087580625 -0.37100157 -0.13936096 -0.23247762 0.23111229 -0.08333438
-0.07515498 -0.068496324 0.19503225 0.13157813 -0.029020883 0.09967131 0.7549435 -0.5563411
-0.3040191 -0.13278161 -0.15464237 0.18850823 0.25504872 0.054842327 0.4037673 -0.7179112
0.533841 0.13212232 -0.14808162 0.25299656 0.37429157 -0.35517865 0.07307318 -0.10287415
0.10051224 -0.12029671 -0.3436498 -0.074904986 -0.14046839 0.30395046 -0.28905123 -0.2757389
-0.01275737 -0.14877324 -0.28483897 0.03570586 -0.0168822 0.05249383 -0.021618696 0.07390046
-0.31244567 -0.3804332 0.21587406 0.18201119 0.25307003 -0.19513227 0.040325437 -0.0068035927
0.03633271 0.15771048 0.46926698 0.24929258 -0.077831656 -0.42045632 0.33107567 -0.25388005
-0.12013672 -0.31580275 0.03732923 0.1533556 -0.28520846 0.17667325 -0.13517793 -0.2568684
-0.3345989 0.5710229 0.24402131 0.19501661 -0.097569704 0.068427384 -0.0750218 -0.050977666
0.18265516 0.18086728 0.5191607 -0.021579096 0.42348975 0.06860137 0.29503837 0.13961461
-0.44112092 0.27973494 0.024972646 0.24202566 0.35383937 0.35102162 0.04744394 -0.027088104
0.17584497 0.28829706 -0.16012949 -0.080272526 0.34291804 -0.3239832 0.39801946 0.17317122
-0.41600958 -0.019940615 0.01088968 0.19289473 0.16447169 0.19238997 0.11961045 -0.07270682
-0.5528023 0.09699219 0.34068358 -0.33428174 -0.22378744 -0.06962397 -0.25290138 -0.055277906

fc1.bias f4 [32]
00000000: ff78 f93d 8666 213e 7251 cd3e 69d9 bc3e
00000010: 5a19 2fbe 72a6 62be 461a 033f 84c2 883e
00000020: 7111 403e 294f 70be 78c5 4e3e 371a 4bbb
00000030: 82ff 343e 5ddc 5cbe a236 893d 51d6 f83d
00000040: d03e 01be 7f46 2bbe cc2c a8bd 17d6 15bf
00000050: 0ed2 173e 58ea 1d3e c19f 733c c84b 5b3e
00000060: 587f e7bc ac9f 023f da2e 813e c71e 87be
00000070: dc4f 143e a149 013f a53a 3f3e 8a2f 1f3e
0.12181281 0.15761766 0.401012 0.3688462 -0.17099515 -0.22133806 0.51211965 0.26710904
0.18756653 -0.23467697 0.20192516 -0.0030990967 0.17675593 -0.21568437 0.066998735 0.121502526
-0.12621617 -0.16726111 -0.08211669 -0.585298 0.14826223 0.15421426 0.014869631 0.21415627
-0.028258964 0.5102489 0.25231057 -0.2639067 0.14483589 0.50502974 0.18674715 0.15545478

fc2.weight f4 [16, 32]
00000000: a90a 47bd ad3f c23c 0258 073e 7e45 8e3d
00000010: 61af a8be 69e1 993e f18d 4e3e c378 d03d
00000020: 07e9 123e dfe9 f8bc 096e a83e a117 c6bd
00000030: 4b3e 31be 81f5 6b3e f72d 93bd e255 a23c
00000040: 6154 b73e 578c 9f3e 8fba a0bd 18a2 933e
00000050: 3680 48bd 4ff8 e53d 4b0b 473e cdd9 d43d
00000060: 04b2 043e 46a2 453d 8b27 a93c 50ad 9dbc
00000070: aef5 293d a9fd b73e 65a1 933e a629 523d
00000080: 896c 54be ba0e 3bbe e689 b33e c5ba e13c
00000090: 878b 48bf cf89 293e 93d0 843e 5a0c 443e
000000a0: 6a49 763e 3a48 c23e 4f38 4d3e 2732 c53b
000000b0: 7ad7 debd 2fef e13d 5dbf 63be d157 11bd
000000c0: 8e0e 5c3e 438b 9b3c 7733 933e e465 2bbe
000000d0: 926c d8be 4c03 5a3e b9fc 80be 4e71 9ebc
000000e0: 7d43 3f3e b5fd 923e a509 6b3e 2085 83be
000000f0: cfc2 55bd b267 8f3d 5fa1 8cbe ad1f cf3d
00000100: 013b 0abe 8ce5 913e cb38 c8bb 072e 3e3e
00000110: 1d30 89bb fdc7 de3d 57d6 c9bb 134c ac3e
00000120: 7027 9e3e ab0b 863e 6623 053e 32b7 10be
00000130: 9a8e 57be dd05 223e 23f8 a0bd 9f20 573e
00000140: e416 153e b1b0 093e 9c08 533e b948 0f3d
00000150: d6a9 84bd f265 f03d dce8 563c 8a8f a83c
00000160: c124 0c3e 1cbd 813e 9780 633e 9cc8 413d
00000170: d4c1 4d3e 8148 8a3e d1d9 9e3e cd81 2f3e
00000180: bbc2 07bf b90b d1be 8ba6 3f3e 374c a03c
00000190: 041a babe f221 a5be f1fe ff3d 1647 073e
000001a0: a7f4 b03e cbb8 6a3d dfc8 63be ca6d c4be
000001b0: 478f c93c 5d10 933d ef83 563e a653 96be
000001c0: d193 073e 547f 903e 4293 783e ac38 87be
000001d0: a55b 82bd 4391 a4bc 30fb 543e a839 03bd
000001e0: 97a9 bd3d 940a b6be 9f9d d7bd 20be e63d
000001f0: 1614 96be ccd8 803e 30f8 64be 1906 1dbf
00000200: 8365 a5be 21b9 ff3c ffcf fd3d cdc9 b73e
00000210: af7e 02bf b3ca d23d e397 e33e 32ed 6b3e
00000220: b080 4c3b 4832 033e c3ce 593d 6ba5 84bd
00000230: ccfd 0ebe e5fe 19be 66de ebbe 978e 573e
00000240: d9a5 8d3e b818 d93d 65d2 80bc 28c6 90be
00000250: e577 4ebe 7f56 e73d 8bdb a83d b44f a63d
00000260: d94e a13e fa8e dabb 1882 1f3e 1ee9 25bd
00000270: 0f56 f0bd 0a11 123e 459f 0abe 45c7 b43d
00000280: 1e8c a63e a0a4 333e 3c8f 39bf effa 6fbd
00000290: 1e19 e33b 9cab 8c3d 054a 97bd 093b 963d
000002a0: ca94 23bf adfb ecbd fd81 dbbd 1fa0 7f3d
000002b0: b0de 013c c712 8cbe d339 313e 33c6 8f3e
000002c0: 7dd2 3fbf 07cd 95be 689a ec3d d6eb 2e3d
000002d0: 13b4 4a3e 18bf 42be 9716 d1bb e563 c23e
000002e0: cdeb 41bd 6c02 88bd f719 4f3d 8e8e 573e
000002f0: 70eb 853e f68c 9a3e 4817 1d3e 7ee5 0b3e
00000300: 6241 b1bd b5e3 883d dc59 8e3e b894 2e3e
00000310: d7b2 42be cc6c 743e 8883 d63d 9857 c33d
00000320: fc5a 763e 3cf3 893e 181a 123e 3a16 d0bd
00000330: 2c54 7bbe 7ecc bbbd 7293 033c bd77 da3d
00000340: bd7a 54bb 9abc d1ba 3983 5c3e 8f8a 0e3e
00000350: 26f9 bbbc e1c6 9d3d cc00 ee3d 126e 503e
00000360: 22df 1f3e bf53 af3e 66b0 a43e afd5 4abd
00000370: 2f06 213e 85f2 7f3e b79d 263c 19c9 5a3e
00000380: 6e71 0d3d fd3f e23d 608d 263e 285a ba3e
00000390: d9aa 65be d410 093d 9c8f 87be 4e44 88be
000003a0: d17f 1abf 1ee4 98be 98f8 5abc c685 423e
000003b0: 98ee bc3d 8bf4 ab3e 361e 0d3e 9a38 173e
000003c0: ee36 d1bd a745 86bd 75f5 4ebf 11b3 17be
000003d0: 6d6b 8cbe caa6 8abd 16f5 f13c 566a 753e
000003e0: 48ba 66be 4063 37bf cb8e f4be 09ed 47bf
000003f0: 3f67 153e 3d2a 57be d6c4 28be 06f4 d03d
-0.04859415 0.023712004 0.13217166 0.06946848 -0.32946303 0.30054787 0.20171334 0.101792835
0.14346705 -0.030384956 0.3289645 -0.096724756 -0.17308919 0.23042871 -0.071865015 0.019816343
0.35806563 0.31161758 -0.07848083 0.28834605 -0.048950396 0.11229002 0.19437902 0.10393105
0.12958533 0.04825046 0.020648738 -0.01924768 0.041494064 0.35935715 0.28834072 0.05130925
-0.20744528 -0.18267336 0.35066146 0.027554879 -0.783379 0.16556476 0.2594038 0.19145337
0.24051443 0.3794573 0.20041011 0.0060179415 -0.10880943 0.11031949 -0.22240968 -0.03548414
0.21489927 0.018987304 0.28750202 -0.16738087 -0.42270333 0.2129032 -0.25192812 -0.019341137
0.18678088 0.28709188 0.22952898 -0.25687504 -0.052187737 0.070022 -0.27466866 0.101134636
-0.1349907 0.28495443 -0.006110286 0.18572246 -0.0041866438 0.108779885 -0.0061595845 0.3365179
0.30889463 0.26180777 0.13001785 -0.14132383 -0.21050492 0.15822549 -0.07859828 0.21008538
0.14559513 0.13446309 0.20608753 0.034981463 -0.06477706 0.117381945 0.013117041 0.020576257
0.13685896 0.25339592 0.22217022 0.047310457 0.20093471 0.2700844 0.31025556 0.17139359
-0.5303151 -0.40829256 0.18715875 0.019567592 -0.36347973 -0.3225246 0.12499798 0.13210711
0.34561655 0.05730514 -0.22244595 -0.38365012 0.024604453 0.071808554 0.20948766 -0.29360694
0.13239981 0.28222144 0.24274924 -0.26410425 -0.06365136 -0.020088797 0.20798945 -0.032037407
0.09260862 -0.35554945 -0.10528111 0.11266732 -0.293122 0.25165403 -0.22360301 -0.6133743
-0.3230401 0.031216206 0.12393188 0.3589615 -0.50974554 0.10292568 0.44451818 0.23039702
0.0031204633 0.1281215 0.0531757 -0.064768635 -0.13964003 -0.15038641 -0.46068114 0.21050487
0.27665594 0.10600418 -0.015725324 -0.2827618 -0.20162924 0.11295795 0.082449995 0.08120671
0.31505468 -0.006669876 0.1557697 -0.04050552 -0.117351644 0.14264312 -0.13537319 0.0882707
0.32528776 0.17543268 -0.72484183 -0.05858892 0.0069304844 0.068686694 -0.07387165 0.07335479
-0.6389891 -0.11571441 -0.10718153 0.062408563 0.007926628 -0.27358076 0.17307214 0.28080902
-0.74930555 -0.29257986 0.11552888 0.04270538 0.19795255 -0.19018209 -0.0063808667 0.37966838
-0.047344018 -0.06641087 0.05056187 0.21050474 0.26156187 0.3018567 0.15340912 0.13661763
-0.08655049 0.06684057 0.27802932 0.17048919 -0.19013534 0.23869628 0.10474306 0.095381916
0.24058145 0.26943386 0.14267766 -0.101604894 -0.24543828 -0.09169863 0.008030759 0.106673695
-0.003242179 -0.0016001642 0.21534432 0.13920043 -0.022945952 0.07703949 0.11621246 0.20354488
0.15612462 0.3424358 0.3216583 -0.04952019 0.15725015 0.24994858 0.010169438 0.21365775
0.034532003 0.11047361 0.16264868 0.3639691 -0.22428454 0.033463314 -0.26476753 -0.26614612
-0.6035128 -0.2986154 -0.013364933 0.18996343 0.09225196 0.3358501 0.13781056 0.14767686
-0.10215555 -0.06556254 -0.8084329 -0.14814402 -0.2742571 -0.06770094 0.029535811 0.23966345
-0.22531998 -0.7163582 -0.47765192 -0.7809606 0.14590167 -0.21012206 -0.16481337 0.10202794

fc2.bias f4 [16]
00000000: 0b7f e93d 9f44 db3c 9a21 023e 046d 19be
00000010: 387e 523e be2c 5ebc 1101 af3e fa6c 0f3c
00000020: 2d5a 293b 78f7 d13c 159c 1b3e c6ac af3c
00000030: 6f2c 45be 7338 acbd ae1a 673e c557 633e
0.11401185 0.02676612 0.1270813 -0.14982992 0.20555961 -0.013560472 0.341805 0.008754009
0.0025841102 0.025630698 0.1519626 0.02144469 -0.19255231 -0.08409204 0.22568771 0.2220145

fc3.weight f4 [1, 16]
00000000: e785 9ebe 726b 82be 8cba 89be 0406 9d3e
00000010: c4ef c6be a484 bd3e 9b42 94be df45 3c3f
00000020: 1c1d 473e 2423 ce3e a812 a63e ecac e83e
00000030: b54c 8c3e 5dde d83e f208 74be e4c9 90be
-0.30961534 -0.254726 -0.26900136 0.30668652 -0.38854802 0.3701526 -0.28957066 0.73544115
0.19444698 0.40261185 0.3243611 0.4544443 0.27402273 0.4235715 -0.23831537 -0.2827903
